models/mnist_model.pt (torch, 441271 bytes, 6 tensors)

weight f4 [128, 784]
000000 99 c5 f0 bc 7c 8d be 3c 02 e3 54 bc 0d d7 e9 3c
       -0.029391097 0.023260824 -0.012993576 0.028544927
000010 a5 84 8b 3c 11 6b d3 3c fa a2 9f 3c 8b 75 09 3c
       0.017031023 0.02580789 0.019486893 0.008389841
000020 5c b5 c1 bc 43 67 b0 3c be 95 c4 bb fb 51 00 3c
       -0.02364605 0.021533614 -0.005999296 0.007832046
000030 a0 ce ec 3c ec ed ef 3c bd 4d f6 3c 4b 47 80 3a
       0.02890712 0.029288255 0.030066365 0.0009786872
000040 dd b4 04 bd df b0 c8 3a b0 9e 9a ba e2 2a d4 bc
       -0.032399047 0.0015311501 -0.001179656 -0.025899354
000050 7a 9c f1 3c 54 0b 6d bc ad 2c 52 3c 92 0d 32 3c
       0.02949356 -0.014468033 0.012828034 0.010867493
000060 b0 3c 04 3d a1 80 d2 3c 81 7d c1 3c 97 ad e9 bc
       0.03228444 0.0256961 0.023619415 -0.028525157
000070 24 9d b8 3b 3f d0 59 3c 43 22 a7 3c 1e 3e ca 3a
       0.005633967 0.013294279 0.02040208 0.0015429889
000080 6a 5b e6 3c 04 d0 03 bd 2b d2 b3 bb f2 0e e0 3c
       0.028119761 -0.0321808 -0.0054877005 0.027350876
000090 e7 80 5a 3c 62 46 54 ba 3b bb 92 3b cc b0 72 bc
       0.013336397 -0.0008097646 0.004477886 -0.0148126595
0000a0 bd e0 f7 bb c6 b4 78 bb 53 3b 0a bd 4d 9b eb bc
       -0.0075646327 -0.0037949546 -0.033747982 -0.028760577
0000b0 15 88 42 3c 14 3c d6 bc 10 95 cf bc 8c 8f cd 3a
       0.011873265 -0.026151694 -0.025339633 0.0015683039
0000c0 92 c6 95 bc 0a 38 44 3c c2 39 04 3c a7 f6 7c 3c
       -0.018283162 0.011976251 0.008070411 0.015439666
0000d0 15 52 72 bc 4e 0a ff bb 52 81 80 3c 40 f4 e6 bc
       -0.014790078 -0.007783211 0.015686665 -0.02819264
0000e0 8c f1 89 3b ce 9d 8f bc 06 72 fb b9 75 c0 a1 3c
       0.004209703 -0.017531302 -0.00047959405 0.019745091
0000f0 2c 75 0c bd 77 ff 9d bc ac 3a 00 3b 39 0a a5 3c
       -0.03429143 -0.019286854 0.001956622 0.020146476
000100 f9 1c 14 bd 4b c6 da 3a c2 1a 05 3d fb 11 fe 3b
       -0.036160443 0.0016691176 0.03249622 0.0077536083
000110 1b 11 5e 3c a7 d8 f6 3c 80 d1 1d 3c ea 18 c9 bc
       0.013553883 0.030132605 0.009632468 -0.024548013
000120 bd ba 08 3c 17 b5 a0 3c 57 4e 52 ba 75 bd fc bc
       0.008345303 0.0196176 -0.0008022538 -0.030852059
000130 e8 9a 1a bc 7c c1 1f 3b f9 61 9e 3c e8 40 08 bc
       -0.009436347 0.00243768 0.019333826 -0.008316256
000140 b9 06 07 bd 01 54 10 bd 01 de a9 3c 42 40 30 bc
       -0.032965396 -0.035236362 0.020735743 -0.010757508
000150 f7 00 94 bc 77 f7 06 3d 46 3d f1 bc e1 09 54 bc
       -0.018066866 0.032950845 -0.029448163 -0.012941808
000160 84 f9 f4 3b ff a6 1b bc 65 1a 3c bc d8 8a ad bc
       0.0074760336 -0.009500264 -0.011480902 -0.02118437
000170 80 b4 fe bc df ae b4 bc cb be cf 3c 7a 15 ae bc
       -0.031091928 -0.022056041 0.025359532 -0.021250475
000180 83 77 d9 3c 2c ba 08 3d ae 21 b6 bc 14 cf cd bc
       0.026546245 0.033380672 -0.022232857 -0.025123157
000190 b1 33 0c 3d 27 e8 1d 3c a2 c6 ae bb 79 3d c2 bc
       0.034228984 0.009637869 -0.0053337375 -0.023710953
0001a0 82 61 a9 bc 23 f9 c6 bc 0a 28 1e 3c a4 91 2f 3c
       -0.020676378 -0.02428872 0.009653101 0.010715876
0001b0 a3 da ec 3c 8d 1d 7c bc b4 8a b0 3c 4a 41 d1 3c
       0.028912848 -0.015387905 0.021550514 0.025543828
0001c0 66 d6 a4 3c ed 35 88 bb 4d e3 43 bc b0 d0 64 3c
       0.020121764 -0.004156819 -0.011956048 0.013965771
0001d0 58 b0 43 bc 3f e6 9e bc d1 34 a1 3c d2 21 bf bc
       -0.011943899 -0.0193969 0.019678505 -0.023331556
0001e0 99 b4 20 bd bd 7a 8d bc a2 72 e8 3c 17 da 06 3d
       -0.03923473 -0.01727044 0.028374974 0.03292283
0001f0 50 07 aa bc fc ee 21 3c 8b 82 00 3d bd 5c ba 3c
       -0.02075544 0.0098836385 0.031374495 0.0227493
000200 ff 3b 97 bc 22 90 c9 3c b3 96 51 3c 06 91 2f 3c
       -0.018461226 0.02460486 0.012792277 0.010715729
000210 eb e0 82 bc a3 fe 2f bb a8 d7 b5 3c b1 d7 22 bc
       -0.01597639 -0.0026854656 0.02219756 -0.00993912
000220 b3 f3 13 3d a5 94 a7 3c 5a 15 9c 3c e6 d3 e8 3c
       0.03612108 0.020456621 0.01905315 0.028421354
000230 ce d7 9a 3a 62 7e 04 bd 82 99 d7 b9 81 42 4d bc
       0.0011813582 -0.03234709 -0.00041122368 -0.012528063
000240 e4 a4 ee 3b d8 98 a7 3c 5a c0 8a 3b b1 55 fd bc
       0.00728284 0.020458624 0.004234356 -0.03092465
000250 af cc 69 bb 05 e0 76 b9 08 f9 b8 3b 50 04 75 3c
       -0.003567498 -0.00023543842 0.005644921 0.014954641
000260 e5 ae fb 3c 2f c2 ee 3b d8 93 80 3d 05 cf e7 3c
       0.030723045 0.007286332 0.06278199 0.028296957
000270 cb 6d 1d 3d 57 7b 90 3c db 78 af bc 39 bf d2 ba
       0.038434785 0.017636938 -0.021419933 -0.0016078717
000280 3a 81 9c 3c ac 20 c5 bc 5e b8 b4 3c c0 9c ec bc
       0.019104589 -0.02406343 0.02206057 -0.028883338
000290 0c 2c 15 3b 7d 75 c4 bb 7f 02 ba bc 06 4d fb bc
       0.002276185 -0.005995451 -0.022706268 -0.030676376
0002a0 14 d6 05 bd 88 d0 52 bc 15 c0 67 bc 9c dd ce bc
       -0.032674864 -0.012867101 -0.014144917 -0.025252156
0002b0 42 57 8a bc 84 d7 c9 bb 63 ea 83 bc 37 bd 86 bc
       -0.01688731 -0.0061597247 -0.016102975 -0.016447647
0002c0 8b ec b6 3c 04 c0 ad 3c 6b 24 eb 3b fb e5 09 3d
       0.02232959 0.021209724 0.007175972 0.033666592
0002d0 50 bf 18 3d a5 68 2f 3d ed 2a 90 bc b8 36 0a 3d
       0.037291825 0.042824406 -0.017598594 0.03374359
0002e0 55 f0 4f 3b d3 18 c5 3b d2 04 15 bd f8 de 1d bd
       0.0031728942 0.006014922 -0.03638155 -0.038542718
0002f0 88 d0 10 bd e5 6c 83 3b df 7c 84 bb ef 89 a0 3c
       -0.03535512 0.004010784 -0.004043206 0.019597022
000300 fa be c0 3b ad 82 ea 3c 21 77 ca 3c 8d 24 20 bc
       0.005882141 0.028626764 0.024715008 -0.009774339
000310 63 de e6 3c b3 a6 93 bb 35 95 9f b6 b4 36 57 bc
       0.028182214 -0.004505956 -4.7559392e-06 -0.013135601
000320 58 2d 61 bc 20 04 88 3c f9 85 31 bd 36 30 2e bd
       -0.013743721 0.01660353 -0.043340657 -0.042526446
000330 c5 43 91 bc 83 b2 56 bc c4 9e 72 3c 96 59 de bb
       -0.01773251 -0.013104084 0.0148083605 -0.006785582
000340 e3 81 a9 bc 0f 8d fa 3c 21 4e 94 3c 3b db 89 3c
       -0.020691818 0.03058484 0.018103661 0.01682817
000350 b6 29 97 3b 69 a3 6b 3b ad c4 1d bd 13 1c 4b 3c
       0.0046131266 0.0035955554 -0.038517643 0.01239683
000360 ce 1b b0 3c 15 02 51 3c ef 7c 9f 3c a6 c2 45 3c
       0.021497633 0.012756844 0.019468753 0.012070334
000370 33 a6 ea bc 51 94 c7 bb 5f 48 32 bc d9 62 11 bc
       -0.028643703 -0.0060906787 -0.010881512 -0.008873665
000380 9b a6 ba 3b 1b 5b 08 bd 16 76 09 3d 27 89 ba bc
       0.0056961305 -0.03329001 0.03355988 -0.022770477
000390 ce e2 ac 3c a6 dd b2 bb d3 05 9b bc 8a 81 60 3c
       0.021104243 -0.0054585515 -0.018923676 0.0137027595
0003a0 8a 02 15 bd 1d d9 5b 3c 8a c2 15 3c 0a f0 a6 3c
       -0.036379375 0.013418463 0.00914062 0.020378131
0003b0 51 eb 69 3c 16 75 c7 3b be 63 11 bd c2 be c2 b8
       0.014277295 0.006086956 -0.035495512 -9.286172e-05
0003c0 db 16 8f bc 80 0f cf 3c 06 60 3e bb 53 3a 93 3b
       -0.017466953 0.025275946 -0.0029048934 0.004493037
0003d0 ec d3 dc 3b 9a 57 3b bc f0 5d 16 bd 5f cc 0d 3c
       0.0067391302 -0.01143446 -0.03671068 0.008654683
0003e0 97 63 0c bd 10 d0 ea 3c 54 e4 02 3d 1b fb 92 bc
       -0.034274664 0.028663665 0.031956032 -0.017942002
0003f0 02 66 de ba 29 77 e1 3c c8 1b 6a bc bc 4a 34 bb
       -0.0016967657 0.02752264 -0.01428885 -0.0027510365

bias f4 [128]
000000 62 11 1d 3c 33 44 0e 3c 4d 82 8d 3c 00 54 84 b9
       0.009586664 0.008683252 0.017274046 -0.00025239587
000010 c2 88 58 bc 5a 04 3d bc c5 0c b3 bc 48 65 96 bc
       -0.013216199 -0.011536682 -0.021856675 -0.018358842
000020 51 ac cf bc 2c 33 f5 bc b2 e1 df bc 1c 82 58 bc
       -0.025350722 -0.029931627 -0.0273293 -0.013214614
000030 d8 9e c4 3b 6a c8 05 bb fd 2f 81 3c d8 11 cc bc
       0.006000381 -0.0020413646 0.015769953 -0.024910852
000040 83 20 9a 3c cf 57 2d bd 83 eb c8 ba 70 dc 1c 3c
       0.01881433 -0.04232007 -0.0015328977 0.009574041
000050 3f 55 83 3c 67 4e d3 bb f3 ca df 3c 28 be af bc
       0.01603186 -0.0064485553 0.027318453 -0.021452978
000060 a5 28 e8 3c 27 2a e0 3c d0 9e a2 bc c2 a0 c2 bc
       0.028339693 0.02736385 -0.019851118 -0.023758296
000070 b0 af 32 3b 66 10 e6 3c a7 e0 d9 bc 15 da 43 bc
       0.0027265362 0.028083991 -0.02659638 -0.01195385
000080 e2 b0 1c 3c c2 5a 11 bc 92 55 ab 3c e7 ec 9e 3b
       0.0095636565 -0.008871736 0.020914827 0.0048500183
000090 ec 15 f1 3c 4b fa a8 bc c2 95 36 3c 6d ff 0a bc
       0.029429398 -0.020627161 0.0111441035 -0.00848375
0000a0 ce ac d8 3c 77 55 19 bc 3b c4 e6 3c 79 68 e2 3c
       0.026449587 -0.009358755 0.028169742 0.027637707
0000b0 4e 07 79 3c f5 a7 ad bc d5 22 5b 3b 90 6a 87 ba
       0.0151994955 -0.021198252 0.003343751 -0.0010331441
0000c0 17 34 ea bc 5e 37 2b 3b 87 51 83 3b 69 83 7f bb
       -0.028589291 0.002612553 0.0040075216 -0.0038988239
0000d0 a4 0e 66 bc 90 2f c0 3c e9 bc 28 3c 7b 67 b0 bc
       -0.014041577 0.02346018 0.010298946 -0.021533718
0000e0 ef d1 99 bb de ce 7f bb dc 5d 14 3d c4 fd 70 bc
       -0.0046942155 -0.0039033215 0.036222324 -0.01470894
0000f0 64 9d fb bc 0a 78 8f bc 20 92 ab bc de 8b c3 bc
       -0.030714698 -0.017513294 -0.020943701 -0.023870405
000100 c8 5e 1b bd ec c9 a7 bc 86 63 82 bc 56 97 a6 bb
       -0.037932187 -0.020482026 -0.015916597 -0.0050839586
000110 26 0b ff 3c 4a cd 00 bd f7 94 a3 bc d5 e9 26 bd
       0.031133246 -0.03144578 -0.019968493 -0.040750343
000120 ec 62 1d bd 3f 6f 10 3d 95 c6 41 bb 4e 86 e2 3c
       -0.038424417 0.035262343 -0.0029567827 0.027651932
000130 b3 8b 0a 3b 0d 3e a3 3b 50 0e 8c bb 28 42 e1 bb
       0.0021140396 0.0049817623 -0.004274167 -0.0068743415
000140 17 ef d8 3a 5f 9f 73 bc 15 3d 82 bc 3a 73 e1 bb
       0.0016550747 -0.01486954 -0.015898267 -0.006880191
000150 26 09 c1 bc 28 37 af 3c 31 86 ea 3c 8b c3 08 3d
       -0.023563933 0.021388605 0.02862844 0.03338961
000160 91 2b 81 bb 97 b2 89 3c f6 19 14 3c f7 c1 1f bb
       -0.003941961 0.016808791 0.009039393 -0.0024377087
000170 62 ca ce bc be 02 90 bc eb 90 0f 3d 65 b0 e2 bc
       -0.025242988 -0.017579433 0.035050314 -0.027672002
000180 7d e2 0a 3d 59 af 13 bc d6 56 cd 3c e3 d1 b9 bc
       0.033907402 -0.009013974 0.02506582 -0.02268309
000190 89 57 12 3c 64 2c 4b 3c da 9d 0e bd 67 e1 a0 bc
       0.008932003 0.01240072 -0.034818508 -0.01963873
0001a0 45 37 c2 3c d9 b3 7b bc fb 9e ac 3c 00 1b d8 3c
       0.023707995 -0.015362703 0.021071902 0.026380062
0001b0 3f 7c 14 bd e6 9c cf 3c 73 dd e1 bc 2b 02 06 bd
       -0.036251303 0.02534337 -0.027571416 -0.03271691
0001c0 54 0d f3 3c d5 fd b3 3c ae be 1f 3c f7 68 eb 3a
       0.029669441 0.021971622 0.009750051 0.0017960359
0001d0 27 4f e3 3c 8d 3b ce 3c 65 ee cd 3b 96 68 05 bc
       0.027747704 0.02517488 0.0062845224 -0.008142611
0001e0 ba ae 0c 3d 9b 90 82 bb 33 c5 cb 3b b0 58 62 bc
       0.03434632 -0.0039845235 0.0062185763 -0.01381509
0001f0 30 20 40 bb e3 7e 5c bc b7 99 3c 3c 43 e1 ee 3c
       -0.002931606 -0.0134579865 0.011511258 0.029160148

weight f4 [64, 128]
000000 81 dd fc 3c ad 75 d6 3d 76 c8 db 3d f8 e1 af bd
       0.03086734 0.104716636 0.10731594 -0.08588022
000010 ec 6b 86 3d 0c bc 95 bc c9 42 49 bd fb b6 6e 3d
       0.06563553 -0.018278144 -0.049135957 0.058279973
000020 52 51 11 bd 36 e2 1a bd 29 c3 84 bd e7 9e a5 bd
       -0.035477944 -0.037813388 -0.06482536 -0.08086949
000030 6e 6a 79 3d 42 e7 7e bd 6b 65 06 3e 92 b2 c8 bd
       0.060892515 -0.062232263 0.13124625 -0.097996846
000040 67 fa 1a 3d 6d 27 3b 3e 9e d0 2f bd 21 83 e3 bb
       0.03783646 0.18276758 -0.042923562 -0.006943122
000050 ef 42 74 3c 1a 18 7d bc 9a 4e 86 bd e7 45 e6 bd
       0.014908536 -0.015447641 -0.06557961 -0.112438016
000060 14 6b a0 3d f4 61 3c be ba 0e 9a 3c c6 0c 0c bd
       0.078329235 -0.18396741 0.01880585 -0.03419187
000070 5a 0a 39 3e 9a 1f 3f 3e b1 1a 03 bd af 19 d9 3d
       0.18070355 0.18664399 -0.032007877 0.10600602
000080 bc 8f 0e 3d cc f5 62 bd e3 48 5d 3d 67 2f 89 3c
       0.034805045 -0.05541019 0.05402459 0.016746236
000090 d6 28 7d 3d 2d e7 a9 3d e6 f7 5e bd 3f 71 cd 3d
       0.061806522 0.082960464 -0.054435633 0.100313656
0000a0 f8 90 4a 3e 17 c4 5d bd f6 c1 f1 3a 77 cf ee 3c
       0.19781864 -0.054142084 0.0018444646 0.029151661
0000b0 fb b2 7c 3b e0 50 13 be 69 0e 56 bd 09 03 9c 3d
       0.003855883 -0.1438632 -0.052259836 0.076177664
0000c0 b5 44 70 3b 8b 69 af bc 38 7a db 3d 8c f6 3a bd
       0.0036662046 -0.021412631 0.10716671 -0.04564528
0000d0 42 1c 14 3e 52 fb 76 3d 91 d7 35 bc fe ee cd bd
       0.14463905 0.06029827 -0.011098758 -0.1005535
0000e0 15 eb 8c 3d 20 c0 1b 3e e0 32 34 bc 8f 6a d6 3d
       0.06880776 0.15210009 -0.010998458 0.10469543
0000f0 0d e4 fa 3d 10 da 76 be 54 40 62 bd 34 9e e2 bc
       0.122505285 -0.24106622 -0.05523713 -0.027663328
000100 6c ca 27 3d 9c c1 90 bd aa 74 41 be 0e 69 22 3e
       0.04096453 -0.07068178 -0.1889216 0.15860388
000110 7b 6f 88 bc df 0b 0a 3e f3 02 93 bc 0e 52 cd 3d
       -0.01665472 0.13481091 -0.017945742 0.10025416
000120 55 d7 36 bd 8b 54 5b 3d 3c 5e 65 bd bc f8 b2 3d
       -0.04463895 0.053547423 -0.055998072 0.087388486
000130 bd 24 50 bb f5 5a 33 be e2 a2 e1 3d cd 5e de 3c
       -0.003176018 -0.17515166 0.110173956 0.027144814
000140 33 1c d2 bc 5a 97 75 be 4e 72 07 be 49 77 a2 3d
       -0.025648212 -0.23983517 -0.13227198 0.07932908
000150 87 2b 80 3c 43 2b 85 bd e1 21 65 3b 24 df 74 3d
       0.015645755 -0.06502392 0.003496282 0.059783116
000160 88 67 60 3d b7 23 c7 3d 57 1d 1a 3d ee 84 13 be
       0.054786235 0.09723609 0.037625637 -0.14406177
000170 cd 30 54 bd da 3b 5a 3d 8b 07 a0 3d 79 8d 7b 3d
       -0.051804353 0.053279735 0.07813939 0.061414216
000180 40 2b b5 3c 81 71 20 3c df 37 e7 39 d7 5d e2 bd
       0.02211535 0.009792686 0.0004410138 -0.11053055
000190 2f d8 1e 3d b5 62 34 bd 50 36 9d 3d b2 7a 0a 3c
       0.038780387 -0.044039447 0.07676375 0.008452104
0001a0 fa 69 e3 bb ef cc 2c 3e 36 1f a9 3d 6b 2d c4 3d
       -0.0069401236 0.16875051 0.08257906 0.09578975
0001b0 e4 8f 68 3d dd ff a7 bc 64 fc d0 3d f3 fa bb bd
       0.05677785 -0.020507747 0.1020439 -0.09178724
0001c0 87 df 37 be f8 37 ab 3d 8c 0a ea 3d 52 2d 25 bd
       -0.17956363 0.083602846 0.11427793 -0.040326424
0001d0 d8 6e 39 3e dd de 93 3d b3 cd 18 be 23 e5 bd bd
       0.1810869 0.07220242 -0.14922218 -0.0927222
0001e0 ec e0 89 3d 55 c0 a1 bd 5e f5 ed 3d ac f7 9b bd
       0.067323536 -0.078980125 0.11619066 -0.07615599
0001f0 4b 6d d3 bd 37 1f a8 3c ac 47 2d bd 91 cb c2 3d
       -0.1032358 0.020522697 -0.04230468 0.095114835
000200 49 7f cf 3c 31 65 39 3e 09 ed 5f bc 11 94 45 bd
       0.025329249 0.18105008 -0.013667353 -0.04823691
000210 c1 18 f0 bc b7 a7 84 3d e7 39 92 3d 2f 8d 7a 3d
       -0.029308679 0.064773016 0.0713995 0.0611698
000220 1b 66 03 be 41 75 af 3d e5 45 9b bd d5 57 85 3d
       -0.12831919 0.08567286 -0.07581691 0.06510893
000230 82 88 2b bd dc 3f b4 3b c9 17 25 3d 42 b7 48 bc
       -0.04187823 0.0055007767 0.040305886 -0.012250723
000240 89 9e 22 bd 92 f7 38 3e 12 08 84 bd a8 d0 01 3e
       -0.039701972 0.1806319 -0.06446852 0.12677252
000250 12 06 76 bd bc 66 fd bd 98 3f 39 bd ae 4c a7 3c
       -0.060064383 -0.12373111 -0.045226663 0.020422306
000260 ab cc 21 3d c7 c9 7b bd 84 a3 1e bc 6a d9 ca bc
       0.039501827 -0.061471727 -0.00968254 -0.024761874
000270 a5 86 ae 3d ae 3e 75 bc 16 8a 34 3b 7f 1e 26 3d
       0.08521775 -0.014968557 0.0027548126 0.040556427
000280 9f f6 c6 bc f0 64 be bd 74 57 1e 3e ff bf 94 3d
       -0.02428752 -0.09296596 0.15463048 0.07263183
000290 34 3b 17 3c 82 2b a9 3c d9 17 a9 bd 18 f9 0f bd
       0.009230424 0.020650629 -0.08256502 -0.035149664
0002a0 9e 6b a9 3d e1 61 8c 3d 07 80 de bc 59 b1 c0 bd
       0.082724795 0.068546064 -0.027160658 -0.094088264
0002b0 e6 f8 80 bd c0 75 cd bc 77 30 e3 bd a4 b9 0e 3e
       -0.062974736 -0.025080562 -0.11093228 0.13938004
0002c0 a3 88 90 3d 64 14 15 be e3 11 98 3d 8f 35 7d 3d
       0.070573114 -0.1455856 0.074252866 0.061818656
0002d0 3e 63 9d 3c ff 77 1a 3e a4 39 e1 bc 47 c2 eb 3d
       0.019212361 0.15084837 -0.027493306 0.11511665
0002e0 b5 76 3c 3e 7d 58 bf bd 6c 98 a5 bd b6 de 3e 3d
       0.18404658 -0.0934305 -0.08085713 0.046599112
0002f0 1d e5 33 3c e5 c1 81 3d df d7 17 be b6 86 b3 3d
       0.010979918 0.063358106 -0.14828442 0.087659284
000300 83 8c ff bd 80 5a 1e be 48 0b 86 bd 8a 46 04 bd
       -0.12477972 -0.1546421 -0.065451205 -0.032293834
000310 57 ee 9c 3d e7 a3 d3 bd 72 75 de 3d 15 12 f3 3d
       0.07662647 -0.10333996 0.10862245 0.11868683
000320 3b eb ba 3d e2 ed 34 be 9a 22 ce bc f9 c6 16 bd
       0.09126898 -0.1766887 -0.025162984 -0.03681085
000330 30 38 13 3e 15 94 90 3d b9 ac cb bd 24 a2 00 be
       0.14376903 0.070594944 -0.099450536 -0.12561852
000340 7c 7c c6 3d cd 5a 93 be 51 f5 90 bd 76 83 1e bc
       0.09691712 -0.28780213 -0.070780404 -0.009674897
000350 c7 5c 7e be 2e df 04 3d 86 91 36 3d 24 bb ab bd
       -0.24840079 0.032439403 0.044572376 -0.083853036
000360 fb 64 9e 3d 25 b5 8f 3c db 4a 61 bc 51 d4 eb bd
       0.07734104 0.017542431 -0.013750757 -0.115151055
000370 8a f8 e8 3d 82 76 0f 3e e7 72 24 3c 38 65 10 3e
       0.1137553 0.14010051 0.0100371605 0.14101112
000380 6f ca c6 3d ed c6 fd bd dc 3a 59 3d 1f 8b 6b bc
       0.0970658 -0.12391458 0.05303465 -0.014376431
000390 19 20 7f 3c 36 36 2d bd 63 a3 36 3d fc 5d 37 3e
       0.0155716175 -0.042288028 0.04458941 0.17906946
0003a0 2c 62 18 3d c2 7f b9 3d 99 28 43 3d 57 4e d0 3d
       0.037203 0.09057571 0.04764614 0.10171192
0003b0 13 db e1 bc 7b 85 86 3c 30 6d 07 3e 22 d8 d1 bd
       -0.027570283 0.01642107 0.13225245 -0.10246302
0003c0 33 aa ec bc ae 77 96 bd d7 ea 90 bd 30 fd 13 3e
       -0.028889751 -0.07347046 -0.07076042 0.14452052
0003d0 0c 9e a1 bc c0 80 12 3e 3f db c5 bd 7d ae 5e bd
       -0.019728683 0.14306927 -0.096609585 -0.054365624
0003e0 bb b6 a7 bd ad 18 4f be ea ca 53 3d 74 1e 10 be
       -0.0818915 -0.20224257 0.051707186 -0.14074117
0003f0 01 65 b6 3d 5a 32 c4 3d 77 5e 3e 3d 7b 58 26 3d
       0.08905984 0.09579916 0.046476807 0.040611725

bias f4 [64]
000000 0c 54 4a bd c7 3d 23 bd 17 24 23 bd 2b 7b c5 3a
       -0.04939656 -0.039853837 -0.03982934 0.0015066614
000010 2e 7f 1b bd 8e a8 80 bd 71 f0 a3 bd 16 2f e4 bb
       -0.037963085 -0.06282149 -0.08004845 -0.006963621
000020 af 6e 0c 3d b0 75 00 bd 88 3a 3e bd dc a1 6e 3d
       0.034285244 -0.031362236 -0.04644254 0.05825983
000030 94 c0 98 3d 1f c8 a1 3d d3 9e 5a bd cb d6 9d 3d
       0.07458606 0.07899498 -0.053374123 0.07706984
000040 30 48 9c bb aa 71 eb bb fb d6 e3 3c 5c e6 0e bd
       -0.0047693476 -0.0071851807 0.027812472 -0.034887657
000050 c2 d0 90 3c a9 4b 95 bd 60 29 76 3d be e3 8d 3d
       0.017677668 -0.07289822 0.060098052 0.06928204
000060 d8 63 2a 3d 71 4c 27 bc 55 50 3b bd af 5e b1 bd
       0.041599125 -0.010211096 -0.045730907 -0.086606376
000070 36 6d 40 3c 02 ea 0e bc be 1d 4c 3c 35 75 25 bd
       0.011744788 -0.008722784 0.012458263 -0.04039498
000080 b2 a4 90 bd 6f 90 cc 3d 37 61 65 3d c7 05 90 3d
       -0.07062663 0.09988486 0.056000914 0.07032352
000090 54 f5 17 3d 14 d9 8e 3d 10 cf 91 bd 91 22 10 3d
       0.037099198 0.06974998 -0.07119572 0.035189215
0000a0 b1 1f 1f 3d c6 9a dd 3c d2 c4 57 bd ff 76 9f 3d
       0.038848583 0.02705134 -0.052677937 0.077863686
0000b0 db 3e da 3d 16 df a3 bd 76 1e 1f 3d f5 63 a4 3c
       0.1065652 -0.08001535 0.03884741 0.020067194
0000c0 9b 5a 11 bc 57 20 14 3c 3f d1 a0 bd 95 9c f8 3c
       -0.0088717 0.009040914 -0.078524105 0.030348102
0000d0 ef 9a aa 3d 82 94 9c 3d 17 9a bc 3b 26 f2 13 3c
       0.083303325 0.07645513 0.0057556736 0.009029901
0000e0 27 33 83 bd ae d6 85 3d 52 c7 d9 3d 53 83 9a 3d
       -0.06406241 0.065350875 0.106337205 0.07544579
0000f0 df 1c 24 bd fa 81 bd 3d 8f 75 af ba 12 a4 06 3d
       -0.040066596 0.09253307 -0.0013386476 0.032871313

weight f4 [10, 64]
000000 ea d5 89 bd 3a ff 05 bd 93 05 25 3e ee b0 71 bc
       -0.06730254 -0.032714106 0.16115408 -0.014751656
000010 0b b8 42 bd 6b 3a 1e 3d 4a 3e b5 bd f9 50 cb bd
       -0.0475388 0.03862993 -0.08849771 -0.09927554
000020 43 41 81 be b0 da d6 bd 81 ef 04 3d 6f d7 04 bf
       -0.25245103 -0.1049093 0.03245497 -0.51891226
000030 e0 c1 95 bd 05 5e 90 be 4b 14 ba bd 6f 06 e5 3d
       -0.07312369 -0.2819673 -0.09085902 0.11182868
000040 36 19 dc 3d 75 ea 0a bd f1 c8 ca 3d 77 6b 31 be
       0.10746996 -0.033915002 0.09901608 -0.17326151
000050 d0 cd ec bc 82 6d 5d 3e 86 73 67 bd a6 91 91 3e
       -0.028906733 0.21623805 -0.056506656 0.28431433
000060 51 0d 8f be 9f d7 f4 bd 4f 50 24 3e 27 18 bc 3e
       -0.27939847 -0.11955189 0.1604626 0.36737177
000070 08 f9 fd bd ec 9c 51 3e 87 50 05 3f d4 00 22 bd
       -0.124010146 0.20470017 0.52076 -0.03955157
000080 c9 27 57 3e 1c 4d 45 be 03 52 12 3e 4f 9b bf 3e
       0.2101127 -0.19267696 0.14289097 0.3742318
000090 a1 0f 3c 3e 56 4f 76 b9 bc 24 fc bd d8 06 50 be
       0.18365337 -0.00023489943 -0.12311694 -0.2031511
0000a0 31 48 91 be f2 19 a1 3c dc 30 de 3e 1f 14 28 3d
       -0.2837539 0.019665692 0.43396652 0.041034814
0000b0 f9 e7 66 be 69 66 2c 3d 34 13 01 3e aa 09 a6 3d
       -0.22549428 0.042089853 0.12604982 0.08107312
0000c0 9f d6 6b be e5 40 92 be 67 aa a3 be 5b 06 b8 3e
       -0.2303109 -0.28565136 -0.31965944 0.3594235
0000d0 91 57 61 be a2 a6 fa bd 7c a7 a2 be 4c 81 87 3e
       -0.2200606 -0.12238814 -0.31768405 0.26465833
0000e0 94 3f 16 bd 58 ff f6 3d d1 13 ab be 2e 81 67 be
       -0.036681727 0.12060422 -0.33413556 -0.22607872
0000f0 80 d3 43 3d aa 52 fa bd 63 43 d4 bd 8d c3 80 3e
       0.047809124 -0.12222798 -0.103644155 0.25149193
000100 be 8d 9c bb 9a 73 20 3d d6 f3 a5 3d 41 c5 93 bc
       -0.004777639 0.039172746 0.08103149 -0.018038394
000110 0d c6 c7 bd 7d fe dd bd 78 60 20 bd 8a f3 6d bd
       -0.09754572 -0.108395554 -0.0391545 -0.058093585
000120 23 9e b7 3e a9 91 86 bd 27 c4 e8 3e e3 cd 14 3e
       0.35862836 -0.06570751 0.45462152 0.14531665
000130 51 4f ff 3d a9 81 91 3e 5b d9 a1 be 46 41 f5 bd
       0.124663 0.28419235 -0.31611142 -0.119753405
000140 10 38 7d be 69 ad 80 be 85 f0 00 3d 01 66 29 bd
       -0.24728417 -0.251323 0.031479377 -0.041357044
000150 a1 ae 4a bd bf 79 76 3e bb 43 c1 3d 9c e1 dd be
       -0.049482945 0.2406988 0.09436747 -0.4333619
000160 b0 98 91 3d 75 fa b4 3d 8c e1 82 3e 84 10 4c be
       0.07109201 0.088368334 0.25562704 -0.19928175
000170 e1 39 1d be 73 61 92 be 3e cc d4 be cf dc 82 bd
       -0.1535411 -0.28589973 -0.41562074 -0.06389772
000180 05 8a 10 be c1 98 ae be 3f 0d 4c bd df 1f 5f bd
       -0.1411515 -0.34100917 -0.04981732 -0.054473754
000190 10 0b a7 bd 5a 7b 0b 3f a4 1b ce 3d 24 e5 f3 3d
       -0.08156407 0.54485095 0.10063866 0.119089395
0001a0 bc b4 6f 3e ca e4 ac 3d 9a de 2c be 1b ac 5d 3d
       0.23408788 0.084420756 -0.16881791 0.05411921
0001b0 d6 e2 a7 3e 88 1f a4 bb 6c 60 c7 3e 56 98 1b 3d
       0.3279025 -0.0050086416 0.38940752 0.037987076
0001c0 11 eb 16 3f d1 4e 76 be 8e 20 d1 3e 99 ae af be
       0.5895243 -0.24053504 0.4084515 -0.34312895
0001d0 67 23 a5 3c 05 02 6f be 33 ff 4e 3e 9b 73 41 3e
       0.020158483 -0.23340614 0.20214538 0.18891756
0001e0 77 49 2b bd 7a c1 25 3d 66 3a 6b bd d8 d3 dc be
       -0.04181811 0.040467717 -0.05742874 -0.43130374
0001f0 72 9f 2a bc b6 c8 6a bd 0c af 42 3e eb 80 bc be
       -0.010413991 -0.05732032 0.19012088 -0.36817107
000200 5c 8e c4 3e 30 8e b9 3e 91 cb 3e 3d ba d2 d0 3d
       0.38389862 0.36241293 0.046580855 0.10196443
000210 af ff b2 3d 9a 64 e3 bd 25 2d 8a 3d 15 c9 d8 3d
       0.08740174 -0.111031726 0.06746892 0.10585228
000220 52 46 0c bf 54 e4 52 bd b2 ec d2 3e 7d 70 68 be
       -0.547948 -0.051487282 0.4119621 -0.22699161
000230 a3 d9 e5 3d 41 a4 89 3e e5 07 d8 bc 98 ce 88 bc
       0.112231515 0.26883128 -0.026370952 -0.016700074
000240 2b 08 5e be 85 cc ce be eb 18 27 3e 86 20 5e 3e
       -0.21682803 -0.4039041 0.16318099 0.21692094
000250 61 62 88 3d 5b c6 0a 3d 97 b5 04 3e ba 6a d4 bd
       0.06659389 0.033880573 0.12959896 -0.10371919
000260 74 ec 0b bf 06 84 c3 3d 52 96 bc be 6b e2 0c 3f
       -0.54657674 0.09546666 -0.36833435 0.55032986
000270 40 06 eb be 13 eb 41 be 16 c2 1a 3d 5d e9 e6 bc
       -0.45903206 -0.1893733 0.03778275 -0.028187448
000280 2c 66 0e be 4c 99 be bd 88 50 98 3e 20 b2 18 3e
       -0.13906163 -0.09306583 0.2974894 0.149117
000290 89 94 67 be 6e 91 18 be 10 9b 03 3f fa e3 7f 3e
       -0.22615255 -0.14899227 0.5140848 0.2498931
0002a0 bb 56 11 3e 1e 8a 15 3d 6d 8b 30 bc 88 a2 64 bd
       0.14193241 0.036508672 -0.010775429 -0.055819064
0002b0 70 9b 64 3e 4f 99 c9 be bb 92 8c be ad 3c 20 3d
       0.2232492 -0.39374778 -0.27455696 0.039120365
0002c0 b5 ed 99 be 42 15 03 3e 24 3b c8 3e ba 35 4f 3d
       -0.3006417 0.12801078 0.3910762 0.050588347
0002d0 94 93 7b 3d d3 a1 ed be f8 74 72 3e 54 64 b6 3e
       0.06142004 -0.46412525 0.23677433 0.3562342
0002e0 6e 77 c8 bd b9 e0 a1 3d fe 94 85 3d 8a 38 08 3e
       -0.097884044 0.079041906 0.06522559 0.13302818
0002f0 19 96 1d 3e 2e 36 18 3e 3a 78 cc bc eb 5c a7 3e
       0.15389289 0.14864418 -0.024959672 0.32688078
000300 2c 13 32 be 34 6d 70 be 44 9c 38 bc 42 f5 40 be
       -0.17390126 -0.23479158 -0.011267725 -0.18843558
000310 f0 7e af 3d 57 71 99 bd e8 a9 ef bd 2b e7 31 be
       0.08569133 -0.07492321 -0.11702329 -0.1737334
000320 b5 24 83 3e 00 9b 04 bd fd 21 18 bf 1f 55 82 3e
       0.25613943 -0.032374382 -0.5942686 0.25455567
000330 8a 44 47 be ef 80 cd 3e 68 b5 db 3e 3e 82 0e bf
       -0.1945974 0.4013743 0.4291184 -0.55667484
000340 75 b8 ce be 77 5c e4 be bd 5d 08 3d 5c ea 4c 3b
       -0.40375105 -0.44601795 0.03329252 0.0031267619
000350 cf b4 dc bc 2a 25 3e bd 61 ae ca bd 7f c3 83 be
       -0.026941685 -0.04642216 -0.098965414 -0.2573509
000360 23 d8 bb 3d 4b 6f ef 3d 36 28 25 be da 53 d9 bd
       0.09172084 0.11691149 -0.1612862 -0.106116965
000370 43 51 ba 3e 18 32 ad 3e 15 1e 89 be a2 25 e3 3d
       0.36390123 0.3382728 -0.26780763 0.11091162
000380 df 45 69 3e 92 db 14 be ac 47 bf 3e d7 e6 c3 3e
       0.2278056 -0.14536884 0.3735937 0.38262054
000390 10 30 c2 be 57 6a 29 3e 4d fe f8 bd 76 23 ac 3d
       -0.37927294 0.16544472 -0.12157879 0.08405201
0003a0 2b d2 ec be 6b e3 39 3e 6b 4f 3e be 5d f2 c3 3c
       -0.46254095 0.1815316 -0.18584983 0.023919279
0003b0 1e 6d d5 3e 32 10 27 3e 98 a4 9a be 33 db 0b be
       0.41684812 0.16314772 -0.302037 -0.13657837
0003c0 6a ca 44 3e 6a 37 79 3d 23 96 27 3e 69 98 69 3e
       0.1921784 0.060843863 0.16365866 0.22812046
0003d0 ae d4 e3 bd 1d 86 95 3e 95 98 0e be 9d bf 7e be
       -0.1112455 0.29203883 -0.13925393 -0.24877782
0003e0 71 5c 24 bc b2 ae 6d 3c 21 48 9c 3e e9 96 dc bd
       -0.010031805 0.014506983 0.3052378 -0.10770971
0003f0 9d f7 d1 bd 49 fe 04 be 02 40 17 be d3 b8 02 3f
       -0.102523066 -0.12987627 -0.14770511 0.5106327

bias f4 [10]
000000 6d 44 cd bd a4 4b 63 bd c9 53 c2 bd 24 40 e1 3c
       -0.10022817 -0.05549206 -0.09488637 0.027496405
000010 07 a2 ba 3d d8 ba ff 3b 5c 9a c4 bd 13 6c 89 3d
       0.091129355 0.007804256 -0.09599754 0.06710067
000020 37 45 42 bc ca 47 1b bb
       -0.011857322 -0.0023693913
